…
        222, 335, 207, 334, 277, 295, 206],
       [335, 399, 334, 343, 327, 398, 407, 391, 271, 342, 326, 406, 390,
        270, 279, 263, 463, 278, 262, 333],
       [ 13,   5,  77,  12,  69,   4,  14,  76,   6,  68,  21,  78,  70,
         85,  20,  22,  84, 141, 133,  11]], dtype=int32)}
ns         = <scirex.operators.layers.neighbor_search.NeighborSearch object at 0x7a088615d1d0>
nx         = 8
ny         = 8
nz         = 8
out_channels = 1
out_p_flat = Array([[… dtype=float64)
out_p_jax  = Array([[[… dtype=float64)
pt_model   = FNOGNO(
  (lifting): ChannelMLP(
    (fcs): ModuleList(
      (0): Conv1d(5, 64, kernel_size=(1,), stride=(1,))
      (1): Conv1d(64, 64, kernel_size=(1,), stride=(1,))
      (2): Conv1d(64, 16, kernel_size=(1,), stride=(1,))
    )
  )
  (fno_blocks): FNOBlocks(
    (convs): ModuleList(
      (0-1): 2 x SpectralConv(
        (weight): DenseTensor(shape=torch.Size([16, 16, 4, 4, 3]), rank=None)
      )
    )
    (fno_skips): ModuleList(
      (0-1): 2 x Flattened1dConv(
        (conv): Conv1d(16, 16, kernel_size=(1,), stride=(1,), bias=False)
      )
    )
    (channel_mlp): ModuleList(
      (0-1): 2 x ChannelMLP(
        (fcs): ModuleList(
          (0): Conv1d(16, 8, kernel_size=(1,), stride=(1,))
          (1): Conv1d(8, 16, kernel_size=(1,), stride=(1,))
        )
      )
    )
    (channel_mlp_skips): ModuleList(
      (0-1): 2 x SoftGating()
    )
  )
  (gno): GNOBlock(
    (pos_embedding): SinusoidalEmbedding()
    (neighbor_search): NeighborSearch()
    (integral_transform): IntegralTransform(
      (channel_mlp): LinearChannelMLP(
        (fcs): ModuleList(
          (0): Linear(in_features=384, out_features=32, bias=True)
          (1): Linear(in_features=32, out_features=16, bias=True)
        )
      )
    )
  )
  (projection): ChannelMLP(
    (fcs): ModuleList(
      (0): Conv1d(16, 64, kernel_size=(1,), stride=(1,))
      (1): Conv1d(64, 1, kernel_size=(1,), stride=(1,))
    )
  )
)
rng        = Array([  0, 123], dtype=uint32)
rng_f      = Array([ 969380169, 3408994049], dtype=uint32)
rng_init   = Array([1896456402, 4081828428], dtype=uint32)
rng_out    = Array([2095235069, 2959038751], dtype=uint32)
seed       = 123
variables  = {'params': {'ChannelMLP_0': {'dense_0': {'bias': Array([0., 0., 0., 0., 0., 0., 0., 0., 0., 0., 0., 0., 0., 0., 0., 0., 0.,
…
 'fcs.2.bias': tensor([0., 0., 0., 0., 0., 0., 0., 0., 0., 0., 0., 0., 0., 0., 0., 0.]),
 'fcs.2.weight': tensor([[ 0.1137, -0.0077,  0.2250,  ...,  0.1827, -0.1764, -0.0102],
        [-0.1706, -0.1547, -0.0754,  ...,  0.0942,  0.0737,  0.2028],
        [-0.0866, -0.1264,  0.1109,  ..., -0.2184, -0.1860, -0.0244],
        ...,
        [-0.2149,  0.0753, -0.0104,  ..., -0.1079, -0.1473,  0.1356],
        [ 0.0911, -0.0598,  0.2165,  ..., -0.1788,  0.1028,  0.0269],
        [-0.0269, -0.0334, -0.0487,  ..., -0.0450, -0.1727,  0.1256]])}
        pt_module  = ChannelMLP(
  (fcs): ModuleList(
    (0): Conv1d(5, 64, kernel_size=(1,), stride=(1,))
    (1): Conv1d(64, 64, kernel_size=(1,), stride=(1,))
    (2): Conv1d(64, 16, kernel_size=(1,), stride=(1,))
  )
)
_ _ _ _ _ _ _ _ _ _ _ _ _ _ _ _ _ _ _ _ _ _ _ _ _ _ _ _ _ _ _ _ _ _ _ _ _ _ _ _ 

self = ChannelMLP(
  (fcs): ModuleList(
    (0): Conv1d(5, 64, kernel_size=(1,), stride=(1,))
    (1): Conv1d(64, 64, kernel_size=(1,), stride=(1,))
    (2): Conv1d(64, 16, kernel_size=(1,), stride=(1,))
  )
)
state_dict = OrderedDict({'fcs.0.weight': tensor([[… ), 'fcs.0.bias': tensor([0., 0., 0., 0., 0., 0., 0., 0., 0., 0., 0., 0., 0., 0., 0., 0., 0., 0., 0., 0., 0., 0., 0., 0.,
        0., 0., 0., 0., 0., 0., 0., 0., 0., 0., 0., 0., 0., 0., 0., 0., 0., 0., 0., 0., 0., 0., 0., 0.,
        0., 0., 0., 0., 0., 0., 0., 0., 0., 0., 0., 0., 0., 0., 0., 0.]), 'fcs.1.weight': tensor([[ 0.0819, -0.0937, -0.0228,  ..., -0.1200,  0.1419,  0.0326],
…
